pyt_tut_2/checkpoint.pth (torch_old, 1082 bytes, 3 tensors)

fc1.weight f4 [16, 2]
0	0x3fb00be6	1.3753631
1	0x3f6ccead	0.9250286
2	0x3dab0b60	0.08351779
3	0x3fe01f22	1.7509501
4	0x3f2ed042	0.68286526
5	0xbeed8631	-0.46391442
6	0xbef95739	-0.48699358
7	0x3f2de9fd	0.6793516
8	0xbf9fd32d	-1.2486321
9	0xbe2f989f	-0.17148064
10	0xbe408b83	-0.1880322
11	0x3f08f5f0	0.5350027
12	0x3e081f54	0.132932
13	0xbe0217f9	-0.12704457
14	0xbebabed3	-0.36473712
15	0xbe721da8	-0.23644125
16	0xbece5cf2	-0.40305287
17	0x3fa8228e	1.3135545
18	0x3f70e5f0	0.94100857
19	0x3f21d6ab	0.6321818
20	0xbf9635f3	-1.1735214
21	0x3fb55837	1.4167546
22	0xbf336e84	-0.7009051
23	0x3de22912	0.1104299
24	0x3e9f5775	0.31121412
25	0x3f1f0974	0.621238
26	0x3eec59c0	0.46162224
27	0x3fbaea3a	1.460273
28	0x3f0efa37	0.5585055
29	0xbf226f4a	-0.63451064
30	0xbee2b2e4	-0.44277108
31	0xbf454c23	-0.770693

fc1.bias f4 [16]
0	0xbf55f709	-0.8358007
1	0xbf02f02c	-0.51147723
2	0x3d7e6de5	0.062116522
3	0xbf665718	-0.89976645
4	0xbfa6bd5a	-1.3026536
5	0x3d56bdf3	0.052427243
6	0xbfae9aa2	-1.364094
7	0x3f387765	0.7205718
8	0xbf358a2c	-0.7091396
9	0x3e3751ac	0.17902249
10	0xbfe838b8	-1.8142309
11	0xbeb3578a	-0.35027725
12	0xbf2546c5	-0.6456111
13	0xbf309900	-0.6898346
14	0x3d8443f6	0.06458275
15	0x3f171709	0.59019524

fc2.weight f4 [1, 16]
0	0x3fb47b3e	1.410011
1	0x3f7d2ba1	0.988947
2	0xbf026b92	-0.5094539
3	0xbec87956	-0.39155072
4	0x3f86c4eb	1.0528845
5	0xbf9b9408	-1.215455
6	0xbeec1e04	-0.4611665
7	0xbd0d02a8	-0.03442636
8	0xbf07f807	-0.53112835
9	0x3f774b5c	0.96599364
10	0xbdd32030	-0.10308874
11	0x3edd18a0	0.4318285
12	0xbb3d2342	-0.0028860127
13	0x3f76a1d5	0.96340686
14	0x3d4821af	0.04886025
15	0x3d0ada07	0.033899333
